{"keras_version": "2.0.5", "config": {"output_layers": [["conv10", 0, 0]], "name": "model_1", "layers": [{"config": {"sparse": false, "batch_input_shape": [null, 64, 64, 1], "name": "input", "dtype": "float32"}, "name": "input", "class_name": "InputLayer", "inbound_nodes": []}, {"config": {"strides": [1, 1], "bias_initializer": {"config": {}, "class_name": "Zeros"}, "data_format": "channels_last", "trainable": true, "activation": "relu", "use_bias": true, "padding": "same", "name": "conv1_1", "activity_regularizer": null, "kernel_constraint": null, "filters": 32, "kernel_initializer": {"config": {"scale": 1.0, "mode": "fan_avg", "distribution": "uniform", "seed": null}, "class_name": "VarianceScaling"}, "dilation_rate": [1, 1], "bias_constraint": null, "kernel_regularizer": {"config": {"l1": 0.0, "l2": 0.00019999999494757503}, "class_name": "L1L2"}, "kernel_size": [3, 3], "bias_regularizer": null}, "name": "conv1_1", "class_name": "Conv2D", "inbound_nodes": [[["input", 0, 0, {}]]]}, {"config": {"scale": true, "beta_regularizer": null, "gamma_regularizer": null, "beta_initializer": {"config": {}, "class_name": "Zeros"}, "gamma_constraint": null, "moving_mean_initializer": {"config": {}, "class_name": "Zeros"}, "axis": -1, "moving_variance_initializer": {"config": {}, "class_name": "Ones"}, "name": "conv1_1_bn", "momentum": 0.99, "center": true, "trainable": true, "epsilon": 0.001, "beta_constraint": null, "gamma_initializer": {"config": {}, "class_name": "Ones"}}, "name": "conv1_1_bn", "class_name": "BatchNormalization", "inbound_nodes": [[["conv1_1", 0, 0, {}]]]}, {"config": {"strides": [1, 1], "bias_initializer": {"config": {}, "class_name": "Zeros"}, "data_format": "channels_last", "trainable": true, "activation": "relu", "use_bias": true, "padding": "same", "name": "conv1_2", "activity_regularizer": null, "kernel_constraint": null, "filters": 32, "kernel_initializer": {"config": {"scale": 1.0, "mode": "fan_avg", "distribution": "uniform", "seed": null}, "class_name": "VarianceScaling"}, "dilation_rate": [1, 1], "bias_constraint": null, "kernel_regularizer": {"config": {"l1": 0.0, "l2": 0.00019999999494757503}, "class_name": "L1L2"}, "kernel_size": [3, 3], "bias_regularizer": null}, "name": "conv1_2", "class_name": "Conv2D", "inbound_nodes": [[["conv1_1_bn", 0, 0, {}]]]}, {"config": {"scale": true, "beta_regularizer": null, "gamma_regularizer": null, "beta_initializer": {"config": {}, "class_name": "Zeros"}, "gamma_constraint": null, "moving_mean_initializer": {"config": {}, "class_name": "Zeros"}, "axis": -1, "moving_variance_initializer": {"config": {}, "class_name": "Ones"}, "name": "conv1_2_bn", "momentum": 0.99, "center": true, "trainable": true, "epsilon": 0.001, "beta_constraint": null, "gamma_initializer": {"config": {}, "class_name": "Ones"}}, "name": "conv1_2_bn", "class_name": "BatchNormalization", "inbound_nodes": [[["conv1_2", 0, 0, {}]]]}, {"config": {"padding": "valid", "strides": [2, 2], "name": "pool1", "data_format": "channels_last", "pool_size": [2, 2], "trainable": true}, "name": "pool1", "class_name": "MaxPooling2D", "inbound_nodes": [[["conv1_2_bn", 0, 0, {}]]]}, {"config": {"strides": [1, 1], "bias_initializer": {"config": {}, "class_name": "Zeros"}, "data_format": "channels_last", "trainable": true, "activation": "relu", "use_bias": true, "padding": "same", "name": "conv2_1", "activity_regularizer": null, "kernel_constraint": null, "filters": 64, "kernel_initializer": {"config": {"scale": 1.0, "mode": "fan_avg", "distribution": "uniform", "seed": null}, "class_name": "VarianceScaling"}, "dilation_rate": [1, 1], "bias_constraint": null, "kernel_regularizer": {"config": {"l1": 0.0, "l2": 0.00019999999494757503}, "class_name": "L1L2"}, "kernel_size": [3, 3], "bias_regularizer": null}, "name": "conv2_1", "class_name": "Conv2D", "inbound_nodes": [[["pool1", 0, 0, {}]]]}, {"config": {"scale": true, "beta_regularizer": null, "gamma_regularizer": null, "beta_initializer": {"config": {}, "class_name": "Zeros"}, "gamma_constraint": null, "moving_mean_initializer": {"config": {}, "class_name": "Zeros"}, "axis": -1, "moving_variance_initializer": {"config": {}, "class_name": "Ones"}, "name": "conv2_1_bn", "momentum": 0.99, "center": true, "trainable": true, "epsilon": 0.001, "beta_constraint": null, "gamma_initializer": {"config": {}, "class_name": "Ones"}}, "name": "conv2_1_bn", "class_name": "BatchNormalization", "inbound_nodes": [[["conv2_1", 0, 0, {}]]]}, {"config": {"strides": [1, 1], "bias_initializer": {"config": {}, "class_name": "Zeros"}, "data_format": "channels_last", "trainable": true, "activation": "relu", "use_bias": true, "padding": "same", "name": "conv2_2", "activity_regularizer": null, "kernel_constraint": null, "filters": 64, "kernel_initializer": {"config": {"scale": 1.0, "mode": "fan_avg", "distribution": "uniform", "seed": null}, "class_name": "VarianceScaling"}, "dilation_rate": [1, 1], "bias_constraint": null, "kernel_regularizer": {"config": {"l1": 0.0, "l2": 0.00019999999494757503}, "class_name": "L1L2"}, "kernel_size": [3, 3], "bias_regularizer": null}, "name": "conv2_2", "class_name": "Conv2D", "inbound_nodes": [[["conv2_1_bn", 0, 0, {}]]]}, {"config": {"scale": true, "beta_regularizer": null, "gamma_regularizer": null, "beta_initializer": {"config": {}, "class_name": "Zeros"}, "gamma_constraint": null, "moving_mean_initializer": {"config": {}, "class_name": "Zeros"}, "axis": -1, "moving_variance_initializer": {"config": {}, "class_name": "Ones"}, "name": "conv2_2_bn", "momentum": 0.99, "center": true, "trainable": true, "epsilon": 0.001, "beta_constraint": null, "gamma_initializer": {"config": {}, "class_name": "Ones"}}, "name": "conv2_2_bn", "class_name": "BatchNormalization", "inbound_nodes": [[["conv2_2", 0, 0, {}]]]}, {"config": {"padding": "valid", "strides": [2, 2], "name": "pool2", "data_format": "channels_last", "pool_size": [2, 2], "trainable": true}, "name": "pool2", "class_name": "MaxPooling2D", "inbound_nodes": [[["conv2_2_bn", 0, 0, {}]]]}, {"config": {"strides": [1, 1], "bias_initializer": {"config": {}, "class_name": "Zeros"}, "data_format": "channels_last", "trainable": true, "activation": "relu", "use_bias": true, "padding": "same", "name": "conv3_1", "activity_regularizer": null, "kernel_constraint": null, "filters": 128, "kernel_initializer": {"config": {"scale": 1.0, "mode": "fan_avg", "distribution": "uniform", "seed": null}, "class_name": "VarianceScaling"}, "dilation_rate": [1, 1], "bias_constraint": null, "kernel_regularizer": {"config": {"l1": 0.0, "l2": 0.00019999999494757503}, "class_name": "L1L2"}, "kernel_size": [3, 3], "bias_regularizer": null}, "name": "conv3_1", "class_name": "Conv2D", "inbound_nodes": [[["pool2", 0, 0, {}]]]}, {"config": {"scale": true, "beta_regularizer": null, "gamma_regularizer": null, "beta_initializer": {"config": {}, "class_name": "Zeros"}, "gamma_constraint": null, "moving_mean_initializer": {"config": {}, "class_name": "Zeros"}, "axis": -1, "moving_variance_initializer": {"config": {}, "class_name": "Ones"}, "name": "conv3_1_bn", "momentum": 0.99, "center": true, "trainable": true, "epsilon": 0.001, "beta_constraint": null, "gamma_initializer": {"config": {}, "class_name": "Ones"}}, "name": "conv3_1_bn", "class_name": "BatchNormalization", "inbound_nodes": [[["conv3_1", 0, 0, {}]]]}, {"config": {"strides": [1, 1], "bias_initializer": {"config": {}, "class_name": "Zeros"}, "data_format": "channels_last", "trainable": true, "activation": "relu", "use_bias": true, "padding": "same", "name": "conv3_2", "activity_regularizer": null, "kernel_constraint": null, "filters": 128, "kernel_initializer": {"config": {"scale": 1.0, "mode": "fan_avg", "distribution": "uniform", "seed": null}, "class_name": "VarianceScaling"}, "dilation_rate": [1, 1], "bias_constraint": null, "kernel_regularizer": {"config": {"l1": 0.0, "l2": 0.00019999999494757503}, "class_name": "L1L2"}, "kernel_size": [3, 3], "bias_regularizer": null}, "name": "conv3_2", "class_name": "Conv2D", "inbound_nodes": [[["conv3_1_bn", 0, 0, {}]]]}, {"config": {"scale": true, "beta_regularizer": null, "gamma_regularizer": null, "beta_initializer": {"config": {}, "class_name": "Zeros"}, "gamma_constraint": null, "moving_mean_initializer": {"config": {}, "class_name": "Zeros"}, "axis": -1, "moving_variance_initializer": {"config": {}, "class_name": "Ones"}, "name": "conv3_2_bn", "momentum": 0.99, "center": true, "trainable": true, "epsilon": 0.001, "beta_constraint": null, "gamma_initializer": {"config": {}, "class_name": "Ones"}}, "name": "conv3_2_bn", "class_name": "BatchNormalization", "inbound_nodes": [[["conv3_2", 0, 0, {}]]]}, {"config": {"padding": "valid", "strides": [2, 2], "name": "pool3", "data_format": "channels_last", "pool_size": [2, 2], "trainable": true}, "name": "pool3", "class_name": "MaxPooling2D", "inbound_nodes": [[["conv3_2_bn", 0, 0, {}]]]}, {"config": {"strides": [1, 1], "bias_initializer": {"config": {}, "class_name": "Zeros"}, "data_format": "channels_last", "trainable": true, "activation": "relu", "use_bias": true, "padding": "same", "name": "conv4_1", "activity_regularizer": null, "kernel_constraint": null, "filters": 256, "kernel_initializer": {"config": {"scale": 1.0, "mode": "fan_avg", "distribution": "uniform", "seed": null}, "class_name": "VarianceScaling"}, "dilation_rate": [1, 1], "bias_constraint": null, "kernel_regularizer": {"config": {"l1": 0.0, "l2": 0.00019999999494757503}, "class_name": "L1L2"}, "kernel_size": [3, 3], "bias_regularizer": null}, "name": "conv4_1", "class_name": "Conv2D", "inbound_nodes": [[["pool3", 0, 0, {}]]]}, {"config": {"scale": true, "beta_regularizer": null, "gamma_regularizer": null, "beta_initializer": {"config": {}, "class_name": "Zeros"}, "gamma_constraint": null, "moving_mean_initializer": {"config": {}, "class_name": "Zeros"}, "axis": -1, "moving_variance_initializer": {"config": {}, "class_name": "Ones"}, "name": "conv4_1_bn", "momentum": 0.99, "center": true, "trainable": true, "epsilon": 0.001, "beta_constraint": null, "gamma_initializer": {"config": {}, "class_name": "Ones"}}, "name": "conv4_1_bn", "class_name": "BatchNormalization", "inbound_nodes": [[["conv4_1", 0, 0, {}]]]}, {"config": {"strides": [1, 1], "bias_initializer": {"config": {}, "class_name": "Zeros"}, "data_format": "channels_last", "trainable": true, "activation": "relu", "use_bias": true, "padding": "same", "name": "conv4_2", "activity_regularizer": null, "kernel_constraint": null, "filters": 256, "kernel_initializer": {"config": {"scale": 1.0, "mode": "fan_avg", "distribution": "uniform", "seed": null}, "class_name": "VarianceScaling"}, "dilation_rate": [1, 1], "bias_constraint": null, "kernel_regularizer": {"config": {"l1": 0.0, "l2": 0.00019999999494757503}, "class_name": "L1L2"}, "kernel_size": [3, 3], "bias_regularizer": null}, "name": "conv4_2", "class_name": "Conv2D", "inbound_nodes": [[["conv4_1_bn", 0, 0, {}]]]}, {"config": {"scale": true, "beta_regularizer": null, "gamma_regularizer": null, "beta_initializer": {"config": {}, "class_name": "Zeros"}, "gamma_constraint": null, "moving_mean_initializer": {"config": {}, "class_name": "Zeros"}, "axis": -1, "moving_variance_initializer": {"config": {}, "class_name": "Ones"}, "name": "conv4_2_bn", "momentum": 0.99, "center": true, "trainable": true, "epsilon": 0.001, "beta_constraint": null, "gamma_initializer": {"config": {}, "class_name": "Ones"}}, "name": "conv4_2_bn", "class_name": "BatchNormalization", "inbound_nodes": [[["conv4_2", 0, 0, {}]]]}, {"config": {"padding": "valid", "strides": [2, 2], "name": "pool4", "data_format": "channels_last", "pool_size": [2, 2], "trainable": true}, "name": "pool4", "class_name": "MaxPooling2D", "inbound_nodes": [[["conv4_2_bn", 0, 0, {}]]]}, {"config": {"strides": [1, 1], "bias_initializer": {"config": {}, "class_name": "Zeros"}, "data_format": "channels_last", "trainable": true, "activation": "relu", "use_bias": true, "padding": "same", "name": "conv5_1", "activity_regularizer": null, "kernel_constraint": null, "filters": 512, "kernel_initializer": {"config": {"scale": 1.0, "mode": "fan_avg", "distribution": "uniform", "seed": null}, "class_name": "VarianceScaling"}, "dilation_rate": [1, 1], "bias_constraint": null, "kernel_regularizer": {"config": {"l1": 0.0, "l2": 0.00019999999494757503}, "class_name": "L1L2"}, "kernel_size": [3, 3], "bias_regularizer": null}, "name": "conv5_1", "class_name": "Conv2D", "inbound_nodes": [[["pool4", 0, 0, {}]]]}, {"config": {"scale": true, "beta_regularizer": null, "gamma_regularizer": null, "beta_initializer": {"config": {}, "class_name": "Zeros"}, "gamma_constraint": null, "moving_mean_initializer": {"config": {}, "class_name": "Zeros"}, "axis": -1, "moving_variance_initializer": {"config": {}, "class_name": "Ones"}, "name": "conv5_1_bn", "momentum": 0.99, "center": true, "trainable": true, "epsilon": 0.001, "beta_constraint": null, "gamma_initializer": {"config": {}, "class_name": "Ones"}}, "name": "conv5_1_bn", "class_name": "BatchNormalization", "inbound_nodes": [[["conv5_1", 0, 0, {}]]]}, {"config": {"strides": [1, 1], "bias_initializer": {"config": {}, "class_name": "Zeros"}, "data_format": "channels_last", "trainable": true, "activation": "relu", "use_bias": true, "padding": "same", "name": "conv5_2", "activity_regularizer": null, "kernel_constraint": null, "filters": 512, "kernel_initializer": {"config": {"scale": 1.0, "mode": "fan_avg", "distribution": "uniform", "seed": null}, "class_name": "VarianceScaling"}, "dilation_rate": [1, 1], "bias_constraint": null, "kernel_regularizer": {"config": {"l1": 0.0, "l2": 0.00019999999494757503}, "class_name": "L1L2"}, "kernel_size": [3, 3], "bias_regularizer": null}, "name": "conv5_2", "class_name": "Conv2D", "inbound_nodes": [[["conv5_1_bn", 0, 0, {}]]]}, {"config": {"scale": true, "beta_regularizer": null, "gamma_regularizer": null, "beta_initializer": {"config": {}, "class_name": "Zeros"}, "gamma_constraint": null, "moving_mean_initializer": {"config": {}, "class_name": "Zeros"}, "axis": -1, "moving_variance_initializer": {"config": {}, "class_name": "Ones"}, "name": "conv5_2_bn", "momentum": 0.99, "center": true, "trainable": true, "epsilon": 0.001, "beta_constraint": null, "gamma_initializer": {"config": {}, "class_name": "Ones"}}, "name": "conv5_2_bn", "class_name": "BatchNormalization", "inbound_nodes": [[["conv5_2", 0, 0, {}]]]}, {"config": {"strides": [2, 2], "bias_initializer": {"config": {}, "class_name": "Zeros"}, "filters": 256, "kernel_constraint": null, "activation": "linear", "use_bias": true, "padding": "same", "name": "conv2d_transpose_1", "activity_regularizer": null, "data_format": "channels_last", "kernel_initializer": {"config": {"scale": 1.0, "mode": "fan_avg", "distribution": "uniform", "seed": null}, "class_name": "VarianceScaling"}, "trainable": true, "bias_constraint": null, "kernel_regularizer": null, "kernel_size": [2, 2], "bias_regularizer": null}, "name": "conv2d_transpose_1", "class_name": "Conv2DTranspose", "inbound_nodes": [[["conv5_2_bn", 0, 0, {}]]]}, {"config": {"name": "dropout_5", "trainable": true, "rate": 0.3}, "name": "dropout_5", "class_name": "Dropout", "inbound_nodes": [[["conv2d_transpose_1", 0, 0, {}]]]}, {"config": {"name": "concat6", "trainable": true, "axis": -1}, "name": "concat6", "class_name": "Concatenate", "inbound_nodes": [[["conv4_2_bn", 0, 0, {}], ["dropout_5", 0, 0, {}]]]}, {"config": {"strides": [1, 1], "bias_initializer": {"config": {}, "class_name": "Zeros"}, "data_format": "channels_last", "trainable": true, "activation": "linear", "use_bias": true, "padding": "same", "name": "conv6_1", "activity_regularizer": null, "kernel_constraint": null, "filters": 256, "kernel_initializer": {"config": {"scale": 1.0, "mode": "fan_avg", "distribution": "uniform", "seed": null}, "class_name": "VarianceScaling"}, "dilation_rate": [1, 1], "bias_constraint": null, "kernel_regularizer": {"config": {"l1": 0.0, "l2": 0.00019999999494757503}, "class_name": "L1L2"}, "kernel_size": [3, 3], "bias_regularizer": null}, "name": "conv6_1", "class_name": "Conv2D", "inbound_nodes": [[["concat6", 0, 0, {}]]]}, {"config": {"scale": true, "beta_regularizer": null, "gamma_regularizer": null, "beta_initializer": {"config": {}, "class_name": "Zeros"}, "gamma_constraint": null, "moving_mean_initializer": {"config": {}, "class_name": "Zeros"}, "axis": -1, "moving_variance_initializer": {"config": {}, "class_name": "Ones"}, "name": "conv6_1_bn", "momentum": 0.99, "center": true, "trainable": true, "epsilon": 0.001, "beta_constraint": null, "gamma_initializer": {"config": {}, "class_name": "Ones"}}, "name": "conv6_1_bn", "class_name": "BatchNormalization", "inbound_nodes": [[["conv6_1", 0, 0, {}]]]}, {"config": {"strides": [1, 1], "bias_initializer": {"config": {}, "class_name": "Zeros"}, "data_format": "channels_last", "trainable": true, "activation": "linear", "use_bias": true, "padding": "same", "name": "conv6_2", "activity_regularizer": null, "kernel_constraint": null, "filters": 256, "kernel_initializer": {"config": {"scale": 1.0, "mode": "fan_avg", "distribution": "uniform", "seed": null}, "class_name": "VarianceScaling"}, "dilation_rate": [1, 1], "bias_constraint": null, "kernel_regularizer": {"config": {"l1": 0.0, "l2": 0.00019999999494757503}, "class_name": "L1L2"}, "kernel_size": [3, 3], "bias_regularizer": null}, "name": "conv6_2", "class_name": "Conv2D", "inbound_nodes": [[["conv6_1_bn", 0, 0, {}]]]}, {"config": {"scale": true, "beta_regularizer": null, "gamma_regularizer": null, "beta_initializer": {"config": {}, "class_name": "Zeros"}, "gamma_constraint": null, "moving_mean_initializer": {"config": {}, "class_name": "Zeros"}, "axis": -1, "moving_variance_initializer": {"config": {}, "class_name": "Ones"}, "name": "conv6_2_bn", "momentum": 0.99, "center": true, "trainable": true, "epsilon": 0.001, "beta_constraint": null, "gamma_initializer": {"config": {}, "class_name": "Ones"}}, "name": "conv6_2_bn", "class_name": "BatchNormalization", "inbound_nodes": [[["conv6_2", 0, 0, {}]]]}, {"config": {"strides": [2, 2], "bias_initializer": {"config": {}, "class_name": "Zeros"}, "filters": 128, "kernel_constraint": null, "activation": "linear", "use_bias": true, "padding": "same", "name": "conv2d_transpose_2", "activity_regularizer": null, "data_format": "channels_last", "kernel_initializer": {"config": {"scale": 1.0, "mode": "fan_avg", "distribution": "uniform", "seed": null}, "class_name": "VarianceScaling"}, "trainable": true, "bias_constraint": null, "kernel_regularizer": null, "kernel_size": [2, 2], "bias_regularizer": null}, "name": "conv2d_transpose_2", "class_name": "Conv2DTranspose", "inbound_nodes": [[["conv6_2_bn", 0, 0, {}]]]}, {"config": {"name": "dropout_6", "trainable": true, "rate": 0.3}, "name": "dropout_6", "class_name": "Dropout", "inbound_nodes": [[["conv2d_transpose_2", 0, 0, {}]]]}, {"config": {"name": "concat7", "trainable": true, "axis": -1}, "name": "concat7", "class_name": "Concatenate", "inbound_nodes": [[["conv3_2_bn", 0, 0, {}], ["dropout_6", 0, 0, {}]]]}, {"config": {"strides": [1, 1], "bias_initializer": {"config": {}, "class_name": "Zeros"}, "data_format": "channels_last", "trainable": true, "activation": "linear", "use_bias": true, "padding": "same", "name": "conv7_1", "activity_regularizer": null, "kernel_constraint": null, "filters": 128, "kernel_initializer": {"config": {"scale": 1.0, "mode": "fan_avg", "distribution": "uniform", "seed": null}, "class_name": "VarianceScaling"}, "dilation_rate": [1, 1], "bias_constraint": null, "kernel_regularizer": {"config": {"l1": 0.0, "l2": 0.00019999999494757503}, "class_name": "L1L2"}, "kernel_size": [3, 3], "bias_regularizer": null}, "name": "conv7_1", "class_name": "Conv2D", "inbound_nodes": [[["concat7", 0, 0, {}]]]}, {"config": {"scale": true, "beta_regularizer": null, "gamma_regularizer": null, "beta_initializer": {"config": {}, "class_name": "Zeros"}, "gamma_constraint": null, "moving_mean_initializer": {"config": {}, "class_name": "Zeros"}, "axis": -1, "moving_variance_initializer": {"config": {}, "class_name": "Ones"}, "name": "conv7_1_bn", "momentum": 0.99, "center": true, "trainable": true, "epsilon": 0.001, "beta_constraint": null, "gamma_initializer": {"config": {}, "class_name": "Ones"}}, "name": "conv7_1_bn", "class_name": "BatchNormalization", "inbound_nodes": [[["conv7_1", 0, 0, {}]]]}, {"config": {"strides": [1, 1], "bias_initializer": {"config": {}, "class_name": "Zeros"}, "data_format": "channels_last", "trainable": true, "activation": "linear", "use_bias": true, "padding": "same", "name": "conv7_2", "activity_regularizer": null, "kernel_constraint": null, "filters": 128, "kernel_initializer": {"config": {"scale": 1.0, "mode": "fan_avg", "distribution": "uniform", "seed": null}, "class_name": "VarianceScaling"}, "dilation_rate": [1, 1], "bias_constraint": null, "kernel_regularizer": {"config": {"l1": 0.0, "l2": 0.00019999999494757503}, "class_name": "L1L2"}, "kernel_size": [3, 3], "bias_regularizer": null}, "name": "conv7_2", "class_name": "Conv2D", "inbound_nodes": [[["conv7_1_bn", 0, 0, {}]]]}, {"config": {"scale": true, "beta_regularizer": null, "gamma_regularizer": null, "beta_initializer": {"config": {}, "class_name": "Zeros"}, "gamma_constraint": null, "moving_mean_initializer": {"config": {}, "class_name": "Zeros"}, "axis": -1, "moving_variance_initializer": {"config": {}, "class_name": "Ones"}, "name": "conv7_2_bn", "momentum": 0.99, "center": true, "trainable": true, "epsilon": 0.001, "beta_constraint": null, "gamma_initializer": {"config": {}, "class_name": "Ones"}}, "name": "conv7_2_bn", "class_name": "BatchNormalization", "inbound_nodes": [[["conv7_2", 0, 0, {}]]]}, {"config": {"strides": [2, 2], "bias_initializer": {"config": {}, "class_name": "Zeros"}, "filters": 64, "kernel_constraint": null, "activation": "linear", "use_bias": true, "padding": "same", "name": "conv2d_transpose_3", "activity_regularizer": null, "data_format": "channels_last", "kernel_initializer": {"config": {"scale": 1.0, "mode": "fan_avg", "distribution": "uniform", "seed": null}, "class_name": "VarianceScaling"}, "trainable": true, "bias_constraint": null, "kernel_regularizer": null, "kernel_size": [2, 2], "bias_regularizer": null}, "name": "conv2d_transpose_3", "class_name": "Conv2DTranspose", "inbound_nodes": [[["conv7_2_bn", 0, 0, {}]]]}, {"config": {"name": "dropout_7", "trainable": true, "rate": 0.3}, "name": "dropout_7", "class_name": "Dropout", "inbound_nodes": [[["conv2d_transpose_3", 0, 0, {}]]]}, {"config": {"name": "concat8", "trainable": true, "axis": -1}, "name": "concat8", "class_name": "Concatenate", "inbound_nodes": [[["conv2_2_bn", 0, 0, {}], ["dropout_7", 0, 0, {}]]]}, {"config": {"strides": [1, 1], "bias_initializer": {"config": {}, "class_name": "Zeros"}, "data_format": "channels_last", "trainable": true, "activation": "linear", "use_bias": true, "padding": "same", "name": "conv8_1", "activity_regularizer": null, "kernel_constraint": null, "filters": 64, "kernel_initializer": {"config": {"scale": 1.0, "mode": "fan_avg", "distribution": "uniform", "seed": null}, "class_name": "VarianceScaling"}, "dilation_rate": [1, 1], "bias_constraint": null, "kernel_regularizer": {"config": {"l1": 0.0, "l2": 0.00019999999494757503}, "class_name": "L1L2"}, "kernel_size": [3, 3], "bias_regularizer": null}, "name": "conv8_1", "class_name": "Conv2D", "inbound_nodes": [[["concat8", 0, 0, {}]]]}, {"config": {"scale": true, "beta_regularizer": null, "gamma_regularizer": null, "beta_initializer": {"config": {}, "class_name": "Zeros"}, "gamma_constraint": null, "moving_mean_initializer": {"config": {}, "class_name": "Zeros"}, "axis": -1, "moving_variance_initializer": {"config": {}, "class_name": "Ones"}, "name": "conv8_1_bn", "momentum": 0.99, "center": true, "trainable": true, "epsilon": 0.001, "beta_constraint": null, "gamma_initializer": {"config": {}, "class_name": "Ones"}}, "name": "conv8_1_bn", "class_name": "BatchNormalization", "inbound_nodes": [[["conv8_1", 0, 0, {}]]]}, {"config": {"strides": [1, 1], "bias_initializer": {"config": {}, "class_name": "Zeros"}, "data_format": "channels_last", "trainable": true, "activation": "linear", "use_bias": true, "padding": "same", "name": "conv8_2", "activity_regularizer": null, "kernel_constraint": null, "filters": 64, "kernel_initializer": {"config": {"scale": 1.0, "mode": "fan_avg", "distribution": "uniform", "seed": null}, "class_name": "VarianceScaling"}, "dilation_rate": [1, 1], "bias_constraint": null, "kernel_regularizer": {"config": {"l1": 0.0, "l2": 0.00019999999494757503}, "class_name": "L1L2"}, "kernel_size": [3, 3], "bias_regularizer": null}, "name": "conv8_2", "class_name": "Conv2D", "inbound_nodes": [[["conv8_1_bn", 0, 0, {}]]]}, {"config": {"scale": true, "beta_regularizer": null, "gamma_regularizer": null, "beta_initializer": {"config": {}, "class_name": "Zeros"}, "gamma_constraint": null, "moving_mean_initializer": {"config": {}, "class_name": "Zeros"}, "axis": -1, "moving_variance_initializer": {"config": {}, "class_name": "Ones"}, "name": "conv8_2_bn", "momentum": 0.99, "center": true, "trainable": true, "epsilon": 0.001, "beta_constraint": null, "gamma_initializer": {"config": {}, "class_name": "Ones"}}, "name": "conv8_2_bn", "class_name": "BatchNormalization", "inbound_nodes": [[["conv8_2", 0, 0, {}]]]}, {"config": {"strides": [2, 2], "bias_initializer": {"config": {}, "class_name": "Zeros"}, "filters": 32, "kernel_constraint": null, "activation": "linear", "use_bias": true, "padding": "same", "name": "conv2d_transpose_4", "activity_regularizer": null, "data_format": "channels_last", "kernel_initializer": {"config": {"scale": 1.0, "mode": "fan_avg", "distribution": "uniform", "seed": null}, "class_name": "VarianceScaling"}, "trainable": true, "bias_constraint": null, "kernel_regularizer": null, "kernel_size": [2, 2], "bias_regularizer": null}, "name": "conv2d_transpose_4", "class_name": "Conv2DTranspose", "inbound_nodes": [[["conv8_2_bn", 0, 0, {}]]]}, {"config": {"name": "dropout_8", "trainable": true, "rate": 0.3}, "name": "dropout_8", "class_name": "Dropout", "inbound_nodes": [[["conv2d_transpose_4", 0, 0, {}]]]}, {"config": {"name": "concat9", "trainable": true, "axis": -1}, "name": "concat9", "class_name": "Concatenate", "inbound_nodes": [[["conv1_2_bn", 0, 0, {}], ["dropout_8", 0, 0, {}]]]}, {"config": {"strides": [1, 1], "bias_initializer": {"config": {}, "class_name": "Zeros"}, "data_format": "channels_last", "trainable": true, "activation": "linear", "use_bias": true, "padding": "same", "name": "conv9_1", "activity_regularizer": null, "kernel_constraint": null, "filters": 32, "kernel_initializer": {"config": {"scale": 1.0, "mode": "fan_avg", "distribution": "uniform", "seed": null}, "class_name": "VarianceScaling"}, "dilation_rate": [1, 1], "bias_constraint": null, "kernel_regularizer": {"config": {"l1": 0.0, "l2": 0.00019999999494757503}, "class_name": "L1L2"}, "kernel_size": [3, 3], "bias_regularizer": null}, "name": "conv9_1", "class_name": "Conv2D", "inbound_nodes": [[["concat9", 0, 0, {}]]]}, {"config": {"scale": true, "beta_regularizer": null, "gamma_regularizer": null, "beta_initializer": {"config": {}, "class_name": "Zeros"}, "gamma_constraint": null, "moving_mean_initializer": {"config": {}, "class_name": "Zeros"}, "axis": -1, "moving_variance_initializer": {"config": {}, "class_name": "Ones"}, "name": "conv9_1_bn", "momentum": 0.99, "center": true, "trainable": true, "epsilon": 0.001, "beta_constraint": null, "gamma_initializer": {"config": {}, "class_name": "Ones"}}, "name": "conv9_1_bn", "class_name": "BatchNormalization", "inbound_nodes": [[["conv9_1", 0, 0, {}]]]}, {"config": {"strides": [1, 1], "bias_initializer": {"config": {}, "class_name": "Zeros"}, "data_format": "channels_last", "trainable": true, "activation": "linear", "use_bias": true, "padding": "same", "name": "conv9_2", "activity_regularizer": null, "kernel_constraint": null, "filters": 32, "kernel_initializer": {"config": {"scale": 1.0, "mode": "fan_avg", "distribution": "uniform", "seed": null}, "class_name": "VarianceScaling"}, "dilation_rate": [1, 1], "bias_constraint": null, "kernel_regularizer": {"config": {"l1": 0.0, "l2": 0.00019999999494757503}, "class_name": "L1L2"}, "kernel_size": [3, 3], "bias_regularizer": null}, "name": "conv9_2", "class_name": "Conv2D", "inbound_nodes": [[["conv9_1_bn", 0, 0, {}]]]}, {"config": {"scale": true, "beta_regularizer": null, "gamma_regularizer": null, "beta_initializer": {"config": {}, "class_name": "Zeros"}, "gamma_constraint": null, "moving_mean_initializer": {"config": {}, "class_name": "Zeros"}, "axis": -1, "moving_variance_initializer": {"config": {}, "class_name": "Ones"}, "name": "conv9_2_bn", "momentum": 0.99, "center": true, "trainable": true, "epsilon": 0.001, "beta_constraint": null, "gamma_initializer": {"config": {}, "class_name": "Ones"}}, "name": "conv9_2_bn", "class_name": "BatchNormalization", "inbound_nodes": [[["conv9_2", 0, 0, {}]]]}, {"config": {"name": "dropout_9", "trainable": true, "rate": 0.3}, "name": "dropout_9", "class_name": "Dropout", "inbound_nodes": [[["conv9_2_bn", 0, 0, {}]]]}, {"config": {"strides": [1, 1], "bias_initializer": {"config": {}, "class_name": "Zeros"}, "data_format": "channels_last", "trainable": true, "activation": "sigmoid", "use_bias": true, "padding": "same", "name": "conv10", "activity_regularizer": null, "kernel_constraint": null, "filters": 1, "kernel_initializer": {"config": {"scale": 1.0, "mode": "fan_avg", "distribution": "uniform", "seed": null}, "class_name": "VarianceScaling"}, "dilation_rate": [1, 1], "bias_constraint": null, "kernel_regularizer": null, "kernel_size": [1, 1], "bias_regularizer": null}, "name": "conv10", "class_name": "Conv2D", "inbound_nodes": [[["dropout_9", 0, 0, {}]]]}], "input_layers": [["input", 0, 0]]}, "backend": "tensorflow", "class_name": "Model"}